models/lstm_model.pt (torch_old, 967949 bytes, 7 tensors)

embedding.weight f4 [80503, 3]
000000 04 31 e9 3f 60 ff a2 be 74 a2 80 be 1c 38 1f bf
       1.8218083 -0.3183546 -0.25123942 -0.6219499
000010 c6 fa 83 3f fd 44 4d c0 77 51 50 bf 57 b7 c3 3e
       1.0310905 -3.2073357 -0.81374305 0.38225815
000020 cb e2 1e c0 32 d3 9b bf 69 de 89 3e 1c fa 31 bf
       -2.4825923 -1.2173827 0.26927498 -0.6952226
000030 b7 18 26 3f c2 41 ba bf b6 65 1d bf ad 78 b4 bf
       0.6488146 -1.4551318 -0.61483324 -1.4099327
000040 ec ba 49 3f da 9b a7 3e aa 86 32 bf e3 3c b9 3f
       0.78800845 0.32736093 -0.6973673 1.4471706
000050 ec 84 e5 bf 81 36 50 3e 3e e2 be bf ce 9e 1d 40
       -1.793119 0.20333292 -1.4912794 2.4628177
000060 f6 98 a8 be 2f 71 9d 3f 6c 51 a9 bf eb c5 79 bf
       -0.329292 1.2300166 -1.3227973 -0.97567624
000070 bd 8e 42 3f fe 51 0a c0 37 56 2f be 08 95 95 bd
       0.7599905 -2.1612544 -0.17122732 -0.07303816
000080 f2 47 21 3f b7 97 b7 3e 52 54 f0 3d 1e ed 4b bf
       0.63000405 0.35857937 0.11734833 -0.7965869
000090 7b b9 89 3e f1 b7 87 bf d4 0e 07 3f a4 bd 6a bf
       0.26899323 -1.060301 0.52757 -0.9169562
0000a0 0d bd 5b 3f 00 c3 bd bf 6d df c9 3f c3 5a e0 be
       0.85835344 -1.4825134 1.5771309 -0.43819246
0000b0 1b e8 64 bc e3 73 cf be a8 06 25 bf 32 72 95 bf
       -0.013971354 -0.40518102 -0.6446328 -1.1675475
0000c0 b3 24 1e 3f 0e df 7c 3d 78 7c 21 bf 3c 4c 5f 3f
       0.6177475 0.06173616 -0.6308055 0.872257
0000d0 3a 78 6b 3f 24 a1 27 bf 5d d3 6a bf a8 f5 cb bd
       0.91980326 -0.65480256 -0.91728765 -0.099589646
0000e0 ba 08 20 3f fe 2c a0 3f 1d bf 81 bf 9c c6 42 3f
       0.62513316 1.251373 -1.0136448 0.76084304
0000f0 50 31 dd be 72 95 9f 3f b9 4c d9 bf dc db 1e bd
       -0.43201685 1.2467482 -1.6976539 -0.038783893
000100 30 1c c5 3f 03 4e 98 3f dc 5f 9a 3f eb 44 97 3f
       1.5399227 1.1898807 1.2060504 1.1817907
000110 28 b4 e7 be 8e c3 d8 bf 64 a6 8c be 26 c9 19 bf
       -0.45254636 -1.6934679 -0.27470696 -0.60072553
000120 f4 d1 39 3e 78 c4 8a bf a8 63 6f be 44 b5 e0 be
       0.18146497 -1.0841208 -0.2337786 -0.43888295
000130 93 a9 41 bf 87 0a 28 bf e7 01 01 be 47 b0 15 3f
       -0.75649375 -0.65641063 -0.12598382 0.584721
000140 09 a0 63 bf 7b c7 4c be a3 b9 11 3e db 99 03 bf
       -0.8891607 -0.19997971 0.14230971 -0.5140664
000150 05 c8 a7 bf 52 51 a8 bf ae e5 26 bf 2d a9 3a 3f
       -1.3107916 -1.3149817 -0.65194213 0.7291439
000160 70 a2 4a 3d e7 f0 74 bf 32 0b 76 bc ec ea 5b 3e
       0.04947132 -0.9568009 -0.015017318 0.21476334
000170 82 9a 55 3f 27 1f bf be dc 0d 78 be c6 29 5b bf
       0.83438885 -0.37328455 -0.24224037 -0.85610616
000180 15 8b 75 bf 4b 40 47 bf 31 f0 9a bf 0b c7 f8 3e
       -0.9591535 -0.7783248 -1.2104551 0.48589358
000190 71 5a e9 be 57 ff 50 bf 0b f7 97 bf 30 09 9f be
       -0.45576814 -0.8163962 -1.1872267 -0.31061697
0001a0 5f fd dc bf 0f 0d 3d bf 4c d5 af bf c9 89 77 bf
       -1.7264823 -0.7384805 -1.3736968 -0.9669462
0001b0 0c 62 9a 3e 6c af 1a 3f 07 24 cb 3d 12 81 83 3e
       0.3015293 0.6042392 0.09918981 0.2568441
0001c0 55 5a 18 be 4c 44 87 be 51 f4 b0 3f 07 69 c8 3f
       -0.14878209 -0.26419294 1.382456 1.5657052
0001d0 1b ba d0 3f 8b 9a 93 bf fa 04 55 be 0a 6c f9 be
       1.6306795 -1.1531538 -0.2080268 -0.4871524
0001e0 68 e2 d2 3d 86 10 2d 3f e0 90 67 bf 35 2c 82 be
       0.1029709 0.6760334 -0.90455437 -0.25424352
0001f0 dd 7d fd bf 08 6b a5 3b a4 7f 53 3e e1 b5 73 be
       -1.9804035 0.0050481595 0.2065416 -0.2379985
000200 b9 c5 da 3e a7 82 bd 3f 0e d0 83 bf 27 6f 85 3e
       0.42728975 1.4805497 -1.0297868 0.26061365
000210 25 6b 8d 3f 06 4f 3a bf 74 63 49 3f c5 2b 9d bf
       1.1048323 -0.7277683 0.7866738 -1.2278982
000220 6c eb a4 bf f6 7b 83 bf c0 b1 87 bf 22 3e 35 be
       -1.2884345 -1.0272205 -1.060112 -0.17699483
000230 ec 86 3b bf 55 9a 08 3f 3c a4 82 bd ae 37 0e 3f
       -0.7325275 0.5336049 -0.063789815 0.5555371
000240 63 99 4a c0 6b bd 91 bf 81 9d 79 bf 5b 39 f7 bd
       -3.165612 -1.1385931 -0.97505957 -0.120714866
000250 c2 a9 98 3f 66 76 47 3f ea 71 12 bf 2f 94 7a 3f
       1.1926806 0.77915037 -0.5720507 0.9788236
000260 de b7 d0 3f b9 3c 90 3e 03 af e3 bf e4 55 32 be
       1.6306112 0.28171328 -1.7787784 -0.17415577
000270 0e fe 98 bf 44 bd ba bf 49 87 9d 3d 3e 86 39 bf
       -1.1952531 -1.4589009 0.07691819 -0.7247046
000280 e8 9b 50 be cf 6d c0 be ec c0 7e c0 0e cd ef bf
       -0.20371974 -0.37583777 -3.980525 -1.8734453
000290 ed ba 6b bf 9d e4 6b 3f ef 2f ea 3f 95 c4 86 3f
       -0.920821 0.9214571 1.8295878 1.0528742
0002a0 12 b1 ca bf 4f 4a ec be 04 7a 53 bf 5b 6a 0d be
       -1.5835288 -0.46150443 -0.82608056 -0.13810103
0002b0 fc 59 d1 3e f1 16 14 3f bd 91 8a bf 27 5c 00 3f
       0.40888965 0.57847506 -1.0825726 0.50140613
0002c0 75 f9 73 bf b2 e1 de bf a7 37 d2 bf 01 0d 2b bf
       -0.95302516 -1.7412627 -1.6423234 -0.6681672
0002d0 4b 0c 76 3f 59 93 cc 3e da 71 d2 3f 18 ee 46 40
       0.9611251 0.39956167 1.6440995 3.108282
0002e0 b9 57 89 bf 02 5d 48 3f ea c3 8b bf ee 6c 30 40
       -1.0729896 0.7826692 -1.0919163 2.7566485
0002f0 77 68 e7 be aa 3c 81 bf c9 08 88 3e 0b 0f 33 3f
       -0.45196888 -1.0096638 0.26569203 0.6994483
000300 ca be 70 be 2e fa 4b 3f 91 30 2d 3f f5 9e f0 3f
       -0.2351028 0.7967862 0.6765223 1.879851
000310 db b1 84 bf 29 b8 9b 3f 0e 0e 53 c0 c3 b7 6d bf
       -1.0366777 1.2165576 -3.2977328 -0.92858523
000320 4b 54 09 bf c7 b7 b5 bf f0 77 c1 bf 01 fd a9 bf
       -0.53644246 -1.4196709 -1.5114727 -1.3280336
000330 61 17 76 3f 4a 1e a7 3f 1e 1b 57 3e 98 e7 21 3f
       0.96129423 1.3056118 0.21006438 0.6324401
000340 0c 1d 1c 3f 43 63 92 bf 27 5c 91 3e 5a 9a 02 3f
       0.6098182 -1.1436542 0.2839062 0.5101677
000350 71 2b c6 bd 04 73 ac bf 57 10 31 3e 2b df 0a bf
       -0.096762545 -1.34726 0.1729139 -0.5424678
000360 02 77 83 3d 9a b7 96 bf 67 5d c7 bf 82 5d d9 be
       0.06419183 -1.1774781 -1.5575379 -0.42454153
000370 9a 9b 72 bf 63 25 4e bf d6 68 89 bf 03 c1 b8 3f
       -0.9476868 -0.805258 -1.0735118 1.4433903
000380 46 5b a8 be 4b 60 54 bf dc c8 83 3f 8f eb b8 bd
       -0.32882136 -0.8295943 1.0295672 -0.09029304
000390 b7 4e dc 3e 8b 61 8a bf 6c cf d3 3e 21 20 50 3f
       0.43028805 -1.0811018 0.41369188 0.81299025
0003a0 0d b0 3d be 62 fb a1 3e f8 57 53 3f 2c 79 0f bf
       -0.1852419 0.31637102 0.82556105 -0.5604427
0003b0 81 2f b8 bf f4 68 a1 3f f7 9f 15 3f f9 76 0b be
       -1.4389497 1.2610154 0.5844721 -0.13619603
0003c0 5b 9f 91 bf b7 74 c0 3f ee bb da 3f 8c 35 26 bf
       -1.1376756 1.5035619 1.7088602 -0.64925456
0003d0 6e 7b 33 bf 48 c6 92 3f 83 54 ca bf d2 32 83 be
       -0.70110214 1.1466761 -1.5807041 -0.2562471
0003e0 b1 0a b1 bf 90 0e 44 bb 8d 97 f6 3f 35 a5 17 bf
       -1.3831388 -0.0029915906 1.9265 -0.5923646
0003f0 9d e5 05 be 3f c1 75 3f c7 e3 8d 3e 77 aa 15 c0
       -0.13075872 0.95997995 0.27712843 -2.3385293

lstm.weight_ih_l0 f4 [16, 3]
000000 26 94 ce be bd 30 42 bf 15 c3 2d 3f 68 9f a3 3f
       -0.40347403 -0.7585562 0.67875797 1.2783022
000010 36 ae 70 bf 47 d3 3c 3f 90 2b 90 3e f8 24 9c 3f
       -0.94015825 0.73759884 0.28158236 1.2198782
000020 58 b2 49 3f 8f 7c 21 c0 87 a3 80 3f 43 5e 79 bf
       0.78787756 -2.5232275 1.0049905 -0.97409457
000030 56 b0 0e bf bf 78 0a be 6f bd bd bf 5c d9 c2 be
       -0.5573782 -0.13522623 -1.4823436 -0.38056457
000040 75 6d 2a be 73 51 4d 3f 81 1e c6 3d a4 c2 09 3f
       -0.16643317 0.80202407 0.09673787 0.53812623
000050 02 98 55 bf 10 91 93 3f 3c ea e5 bf 05 7b ad be
       -0.8343507 1.1528645 -1.7962108 -0.3388292
000060 e1 80 3b bf 6f 91 bd 3f 4e fd 54 c0 fe ce 07 3f
       -0.7324353 1.4810008 -3.3279605 0.5305022
000070 bb 6f f0 3f 81 50 cf bf b0 51 26 bf e9 44 fd 3e
       1.8784097 -1.6196443 -0.64968395 0.49466637
000080 40 4b c8 be 69 8c bf 3f 65 d6 c8 3e 51 b7 c5 3f
       -0.3911991 1.4964725 0.3922607 1.5446569
000090 81 e3 df 3e 43 93 d5 be 2d 01 fe be b3 64 9b 3e
       0.4372826 -0.41713914 -0.49610272 0.30350265
0000a0 78 1c 96 3f f9 1a f1 bf 28 d1 09 bf f1 9e 31 bf
       1.1727438 -1.8836356 -0.5383477 -0.6938315
0000b0 1f 01 5d 3f e4 b0 a1 be 7a 02 a4 3d 46 a3 16 3f
       0.86329836 -0.3158027 0.08008285 0.58842885

lstm.weight_hh_l0 f4 [16, 4]
000000 07 7f 20 40 6c 72 56 bf 10 b5 f1 bf b6 a2 63 3f
       2.5077531 -0.83768344 -1.8883381 0.8892015
000010 b0 ae 82 40 06 7c 39 3f e2 2b de be f0 5f f2 bd
       4.083824 0.7245487 -0.43392855 -0.11834705
000020 ba 85 ac bf 2e df a2 be 13 41 f8 3e a6 61 15 3f
       -1.347831 -0.31810898 0.48487148 0.58352125
000030 3d 1d 2e 3d 60 7e c8 bf fc d9 75 bf 59 a4 37 bd
       0.042508353 -1.5663567 -0.9603574 -0.04483447
000040 6a 22 03 bf 60 e1 9e 3e 56 31 f1 3f f7 e3 57 3e
       -0.51224387 0.31031322 1.8843181 0.21083055
000050 ed e1 60 40 2b 2b 58 3e fa 58 a4 3e f0 6f ae bf
       3.5137894 0.21110217 0.32099134 -1.3627911
000060 ba c2 64 be eb 0d c6 3f d8 a7 d7 3f b0 2b 33 c0
       -0.22339907 1.5472997 1.6848097 -2.7995415
000070 3e 86 97 3f f2 74 85 3e 03 43 38 3d db c3 f2 3e
       1.1837842 0.26065785 0.044985782 0.4741505
000080 8e 0e e6 bf ce 99 4c bf 21 30 aa bf 4b 05 e9 bf
       -1.7973192 -0.7992219 -1.3295938 -1.820474
000090 c6 2f b2 be 92 1f 6c bf 17 44 e0 3e a5 29 db bc
       -0.34802073 -0.9223567 0.43801948 -0.026753256
0000a0 e5 d8 91 bf 78 78 9c 3f 11 2b 98 3f fd e2 7c bf
       -1.1394316 1.2224264 1.1888143 -0.98783857
0000b0 61 29 1e bf d9 60 44 3f f1 11 a8 3f e0 5b 07 3f
       -0.6178189 0.7671028 1.3130475 0.52874565
0000c0 31 e0 2c 3f 12 54 4d 40 24 9f 2e 3f 7b 3e 37 c0
       0.6752959 3.2082562 0.6821158 -2.8631885
0000d0 7b 0b cc 3f d7 e9 9c 3f 2d 83 cc be 47 3b 7e be
       1.5941004 1.2258862 -0.3994383 -0.248273
0000e0 9f d9 2b bf 0d d6 c5 3f 4c 68 4c 40 31 f2 08 c0
       -0.6712894 1.5455948 3.1938658 -2.1397822
0000f0 3b 9f 84 40 5b 16 c9 3f 0d 61 f5 3f 5b df ee bd
       4.1444373 1.5709947 1.9170243 -0.116636954

lstm.bias_ih_l0 f4 [16]
000000 f0 a2 a0 bf 63 60 b4 3e 87 7d fe bf a4 97 8f be
       -1.2549725 0.35229787 -1.9882058 -0.2804538
000010 5d ff d4 3f ba 4b f6 bc 98 54 f4 3f 15 b4 42 3f
       1.6640431 -0.030065406 1.9088316 0.76056033
000020 d6 7f dc bd 44 58 42 3e 77 9a 48 3f e3 3b dd 3e
       -0.1076657 0.18978983 0.78360695 0.43209752
000030 4f 49 9e bd 05 d2 25 bf 55 4a 9c 3f 34 a7 79 3f
       -0.07728826 -0.6477359 1.2210184 0.97520757

lstm.bias_hh_l0 f4 [16]
000000 22 df 8e bf e0 e1 0d be c5 c9 e2 bf 53 aa 54 bf
       -1.1161845 -0.13855696 -1.7717825 -0.83072394
000010 5d 0f ca 3f d0 72 03 3d e2 8b 28 40 a3 9e ff 3e
       1.5785939 0.032091916 2.6335378 0.49925718
000020 1f 8e 79 bc a0 cc 57 3e e4 ef 8a 3e 5d 90 72 3f
       -0.015231638 0.21074152 0.27136147 0.9475153
000030 67 aa 11 be 1f a6 55 bf 75 f0 64 3f 9e 12 6c 3f
       -0.1422516 -0.83456606 0.8942941 0.9221591

fc.weight f4 [6, 4]
000000 98 c1 c5 c0 01 1d 20 c0 76 df 79 3f 2f 38 be 3e
       -6.179882 -2.5017703 0.976066 0.3715224
000010 0d 5d 81 c0 0c 9d 7d c0 52 ed 8e bf 6c dd 4d 40
       -4.0426087 -3.9627104 -1.1166174 3.2166395
000020 87 27 cc c0 b6 9a 01 c0 fe 4b c3 3b 2c 42 b0 3f
       -6.379825 -2.0250678 0.0059599867 1.3770194
000030 41 43 fb bf 46 81 b7 c0 22 c3 23 c0 a9 e0 90 bd
       -1.9629899 -5.7345304 -2.558785 -0.070741005
000040 e6 64 82 c0 70 ae 8b c0 f2 75 77 3e a5 98 70 3f
       -4.0748167 -4.3650436 0.24166086 0.9398292
000050 e0 f3 df bf ff 10 a5 c0 b9 34 3a bf 1c c2 7d 3f
       -1.74963 -5.1583247 -0.727367 0.9912431

fc.bias f4 [6]
000000 e2 04 8e 3f f5 ff aa bf 2d 81 43 be 14 ea f1 bf
       1.109524 -1.3359362 -0.19092245 -1.889956
000010 92 25 f2 be 21 49 ec bf
       -0.4729429 -1.8459817
